…
2026-06-29 14:56:58,133 INFO: Dataset [PairedSiameseImageDataset] - TrainSiameseDirect7060 is built.
2026-06-29 14:56:58,134 INFO: Training statistics:
	Number of train images: 150877
	Dataset enlarge ratio: 1
	Batch size per gpu: 12
	World size (gpu number): 1
	Require iter number per epoch: 12574
	Total epochs: 10; iters: 120000.
2026-06-29 14:56:58,134 INFO: Dataset [PairedImageDataset] - ValSet5 is built.
2026-06-29 14:56:58,134 INFO: Number of val images/folders in ValSet5: 5
2026-06-29 14:56:58,501 INFO: Network [RRDBNetFeatOut] is created.
2026-06-29 14:56:58,956 INFO: Network: RRDBNetFeatOut, with parameters: 16,697,987
2026-06-29 14:56:58,956 INFO: RRDBNetFeatOut(
  (conv_first): Conv2d(3, 64, kernel_size=(3, 3), stride=(1, 1), padding=(1, 1))
  (body): ModuleList(
    (0-22): 23 x RRDB(
      (rdb1): ResidualDenseBlock(
        (conv1): Conv2d(64, 32, kernel_size=(3, 3), stride=(1, 1), padding=(1, 1))
        (conv2): Conv2d(96, 32, kernel_size=(3, 3), stride=(1, 1), padding=(1, 1))
        (conv3): Conv2d(128, 32, kernel_size=(3, 3), stride=(1, 1), padding=(1, 1))
        (conv4): Conv2d(160, 32, kernel_size=(3, 3), stride=(1, 1), padding=(1, 1))
        (conv5): Conv2d(192, 64, kernel_size=(3, 3), stride=(1, 1), padding=(1, 1))
        (lrelu): LeakyReLU(negative_slope=0.2, inplace=True)
      )
      (rdb2): ResidualDenseBlock(
        (conv1): Conv2d(64, 32, kernel_size=(3, 3), stride=(1, 1), padding=(1, 1))
        (conv2): Conv2d(96, 32, kernel_size=(3, 3), stride=(1, 1), padding=(1, 1))
        (conv3): Conv2d(128, 32, kernel_size=(3, 3), stride=(1, 1), padding=(1, 1))
        (conv4): Conv2d(160, 32, kernel_size=(3, 3), stride=(1, 1), padding=(1, 1))
        (conv5): Conv2d(192, 64, kernel_size=(3, 3), stride=(1, 1), padding=(1, 1))
        (lrelu): LeakyReLU(negative_slope=0.2, inplace=True)
      )
      (rdb3): ResidualDenseBlock(
        (conv1): Conv2d(64, 32, kernel_size=(3, 3), stride=(1, 1), padding=(1, 1))
        (conv2): Conv2d(96, 32, kernel_size=(3, 3), stride=(1, 1), padding=(1, 1))
        (conv3): Conv2d(128, 32, kernel_size=(3, 3), stride=(1, 1), padding=(1, 1))
        (conv4): Conv2d(160, 32, kernel_size=(3, 3), stride=(1, 1), padding=(1, 1))
        (conv5): Conv2d(192, 64, kernel_size=(3, 3), stride=(1, 1), padding=(1, 1))
        (lrelu): LeakyReLU(negative_slope=0.2, inplace=True)
      )
    )
  )
  (conv_body): Conv2d(64, 64, kernel_size=(3, 3), stride=(1, 1), padding=(1, 1))
  (conv_up1): Conv2d(64, 64, kernel_size=(3, 3), stride=(1, 1), padding=(1, 1))
  (conv_up2): Conv2d(64, 64, kernel_size=(3, 3), stride=(1, 1), padding=(1, 1))
  (conv_hr): Conv2d(64, 64, kernel_size=(3, 3), stride=(1, 1), padding=(1, 1))
  (conv_last): Conv2d(64, 3, kernel_size=(3, 3), stride=(1, 1), padding=(1, 1))
  (lrelu): LeakyReLU(negative_slope=0.2, inplace=True)
)
2026-06-29 14:56:59,161 INFO: Loading RRDBNetFeatOut model from /data/home/namlh/DLEnhance_ImageQuality/Real-ESRGAN/weights/net_g_455000.pth, with param key: [params_ema].
2026-06-29 14:56:59,230 INFO: Use Exponential Moving Average with decay: 0.999
2026-06-29 14:56:59,535 INFO: Network [RRDBNetFeatOut] is created.
2026-06-29 14:56:59,764 INFO: Loading RRDBNetFeatOut model from /data/home/namlh/DLEnhance_ImageQuality/Real-ESRGAN/weights/net_g_455000.pth, with param key: [params_ema].
2026-06-29 14:56:59,858 INFO: Network [UNetDiscriminatorSN] is created.
2026-06-29 14:56:59,862 INFO: Network: UNetDiscriminatorSN, with parameters: 4,376,897
2026-06-29 14:56:59,862 INFO: UNetDiscriminatorSN(
  (conv0): Conv2d(3, 64, kernel_size=(3, 3), stride=(1, 1), padding=(1, 1))
  (conv1): Conv2d(64, 128, kernel_size=(4, 4), stride=(2, 2), padding=(1, 1), bias=False)
  (conv2): Conv2d(128, 256, kernel_size=(4, 4), stride=(2, 2), padding=(1, 1), bias=False)
  (conv3): Conv2d(256, 512, kernel_size=(4, 4), stride=(2, 2), padding=(1, 1), bias=False)
  (conv4): Conv2d(512, 256, kernel_size=(3, 3), stride=(1, 1), padding=(1, 1), bias=False)
  (conv5): Conv2d(256, 128, kernel_size=(3, 3), stride=(1, 1), padding=(1, 1), bias=False)
  (conv6): Conv2d(128, 64, kernel_size=(3, 3), stride=(1, 1), padding=(1, 1), bias=False)
  (conv7): Conv2d(64, 64, kernel_size=(3, 3), stride=(1, 1), padding=(1, 1), bias=False)
  (conv8): Conv2d(64, 64, kernel_size=(3, 3), stride=(1, 1), padding=(1, 1), bias=False)
  (conv9): Conv2d(64, 1, kernel_size=(3, 3), stride=(1, 1), padding=(1, 1))
)
2026-06-29 14:56:59,864 INFO: Loss [L1Loss] is created.
2026-06-29 14:57:01,295 INFO: Loss [PerceptualLoss] is created.
2026-06-29 14:57:01,314 INFO: Loss [GANLoss] is created.
2026-06-29 14:57:01,325 INFO: Model [RealESRGANSiameseModel] is created.
2026-06-29 14:57:01,536 INFO: Start training from epoch: 0, iter: 0
